404DNF_web/model_server/model/resgcn_improved.pt (torch, 869968 bytes, 16 tensors)

blocks.0.conv.bias f4 [128]
00000000: 98c5 d0b8 e04c 5db9 047f 8538 bd1f da38
00000010: a63f 2939 8c84 19b9 dd87 c038 2be0 18b8
00000020: e451 5337 600c d537 605e 30b7 88a8 bc38
00000030: 2f68 55b8 20b1 dc37 26f4 8d38 8ca8 7bb8
00000040: fa6c 8c38 7fa1 0bb9 4124 2538 ae1b 0cb8
00000050: fba3 16b9 37a6 0039 d64c 81b8 502e 6bb6
00000060: d74d 1638 5a5b 31b8 b721 5e39 d4e8 6ab7
00000070: 6785 9638 489c 1038 54bd c9b8 c499 37b9
00000080: 8304 7738 9051 fcb6 dcff 99b8 d0e3 2d37
00000090: ae46 12b9 142e 7838 9ddc dc38 0856 b3b8
000000a0: ae19 deb8 3282 28b8 48af 27b8 2822 41b8
000000b0: 9c32 6037 1e8d d635 5e0c f238 7929 9438
000000c0: bc13 c137 3eb0 4d38 9410 7738 4def ef38
000000d0: 3ead 2f37 2429 68b9 92cb da38 3f3a d7b6
000000e0: f06e c538 b3e8 eab6 6184 b2b8 e87d 20b9
000000f0: ab5b 1fb8 6439 c7b8 ebe4 47b9 1817 b6b8
00000100: f0c9 b138 0ce4 8cb8 07ed 53b8 7452 acb7
00000110: 28d3 7537 6ac2 dfb8 0b41 9838 f037 ce38
00000120: 4229 50b8 1f58 bab7 0b5f 6238 d58c 4c38
00000130: 903c adb8 7551 7cb8 f9bf ec37 dbe6 2cb9
00000140: 0cda a9b6 08bb 93b8 7d9b 31b9 108e 2636
00000150: 5f36 6fb9 d244 b1b7 5c7e 30b8 c521 df38
00000160: e248 3cb8 4d46 8eb8 a169 dcb8 a433 bfb7
00000170: 3298 5d38 9fee da37 d8af f137 5a55 d638
00000180: e4fd f536 1268 8838 e005 ae38 17ca f338
00000190: 5b77 21b9 89b2 88b8 bd1a b637 d816 86b8
000001a0: 1227 97b8 f484 d938 3472 6cb6 4013 c537
000001b0: 2032 4b37 7086 d138 0603 8eb8 5e91 d537
000001c0: fff3 27b9 c4b4 edb8 88b7 bfb7 7f3b fb38
000001d0: e72e 9938 b7df ecb7 1b3b aab8 66f9 edb8
000001e0: f5ec 05b8 9558 e538 0fb7 3938 7656 8a38
000001f0: f8d9 22b8 74d7 c638 a65a a137 0c74 8eb7
-9.9550176e-05 -0.0002110484 6.365593e-05 0.00010400962 0.00016140807 -0.00014640595 9.18058e-05 -3.6448397e-05
1.2595647e-05 2.5397341e-05 -1.0512391e-05 8.99593e-05 -5.0880186e-05 2.6308524e-05 6.76888e-05 -6.0000035e-05
6.696019e-05 -0.00013316235 3.937283e-05 -3.340438e-05 -0.00014366202 0.00012268951 -6.165511e-05 -3.5044686e-06
3.583528e-05 -4.2285166e-05 0.0002118413 -1.4001696e-05 7.1774055e-05 3.4477824e-05 -9.619692e-05 -0.00017509522
5.889359e-05 -7.5196804e-06 -7.343266e-05 1.0364645e-05 -0.00013949975 5.917072e-05 0.0001053151 -8.55141e-05
-0.00010590568 -4.0175575e-05 -3.9979146e-05 -4.6046596e-05 1.3363224e-05 1.5985313e-06 0.00011541763 7.064915e-05
2.3016582e-05 4.9039947e-05 5.890483e-05 0.00011440981 1.0471149e-05 -0.0002214057 0.00010432968 -6.41428e-06
9.414356e-05 -7.000833e-06 -8.512359e-05 -0.00015305693 -3.7993927e-05 -9.499749e-05 -0.00019063397 -8.682738e-05
8.4776315e-05 -6.718197e-05 -5.052707e-05 -2.0542393e-05 1.4652302e-05 -0.00010669681 7.26004e-05 9.8332646e-05
-4.962949e-05 -2.2213962e-05 5.3971115e-05 4.876855e-05 -8.2605635e-05 -6.0157345e-05 2.8222787e-05 -0.00016489199
-5.0619765e-06 -7.0443435e-05 -0.0001693796 2.4818619e-06 -0.00022813071 -2.1132091e-05 -4.207935e-05 0.00010639759
-4.489057e-05 -6.784182e-05 -0.000105100924 -2.2793021e-05 5.283225e-05 2.6098742e-05 2.8811322e-05 0.00010220213
7.3311257e-06 6.50437e-05 8.298061e-05 0.00011624785 -0.0001539862 -6.51824e-05 2.1708542e-05 -6.393873e-05
-7.2075185e-05 0.00010372131 -3.5233215e-06 2.3493194e-05 1.21114135e-05 9.9909375e-05 -6.771651e-05 2.545927e-05
-0.00016017257 -0.00011334711 -2.2854438e-05 0.00011979695 7.304345e-05 -2.8237568e-05 -8.117241e-05 -0.00011347495
-3.1930354e-05 0.000109360706 4.4277924e-05 6.5964574e-05 -3.882681e-05 9.481507e-05 1.9234907e-05 -1.6981758e-05

blocks.0.conv.lin.weight f4 [128, 768]
00000000: ca28 c03c bb14 feba 1dc1 2ebd 452b 0abd
00000010: 6451 4b3b df8d 883d 57fc aa3d 169e e8bd
00000020: 97b9 7dbd 0a37 8dbd b29a 64bc 50cf 54b9
00000030: 29af 0f3d 1946 33bd 62e6 f03d d757 b1bc
00000040: 7aed a83d 4615 853d 63e2 fbbc ad17 873d
00000050: 97ae 4ebc f9cc 913d 9a0f 683d b6d1 5cbd
00000060: 4248 873d 9ca9 45bd 718b 993d afa4 a13d
00000070: f208 993d 276b caba 1de9 cfbc 743b 1bbc
00000080: dfa4 37bd e50f c13c ce82 a4bc f4eb 353d
00000090: a504 2cbd 100e 8e3d 017a 2dbd 4a6d 70bd
000000a0: 39af 723d e017 8abd 0620 5e3d da71 bd3d
000000b0: 6044 96bd 78b9 a33c a48a 183d ba44 5f3d
000000c0: c41f f4bb c384 9b3d 5a6c 853d b9dd acbd
000000d0: 0bd1 013c f59a 833d 4f1b 95bd d5bb d33c
000000e0: 510d 343d c474 4a3c 3c59 85bd c08f 143c
000000f0: 432c 55bd 66ce d0bc e304 203d ae2e 9bbd
00000100: 0b12 9f3d 7cc0 6fbd ac06 b7bd b002 89bd
00000110: e08b 09bd 3439 603d ccc6 acbd 8a1f 923d
00000120: 604c 9c39 29ba 223d 6d10 013d 9b7e 8abd
00000130: 380e 433d 2f4d 113c 9943 15bd 080a 833c
00000140: 7589 873d 0ed0 62bd d396 49bd 384b 423c
00000150: 83ea 15bc 5696 2d3b 2506 95bd 4088 80bd
00000160: 09cd 86bc 3145 1fbd 3b67 6d3d e633 82bd
00000170: 39a6 7dbd ef0c 60bd 50f0 623d f528 913c
00000180: 85d8 033d 7761 aabd 39f1 c2bc 9f09 113d
00000190: bec2 a93d 233f 9fbd 70ef 52bd 097f 4fbc
000001a0: 2c0f cdbc 24ea a5bd fc40 e83c 91ba d2bb
000001b0: 06b1 3ebd 0d50 d93c ba49 463d 730d 843c
000001c0: 3419 50bd 5d65 81bc 193d f6bb c72e 2bbd
000001d0: 764a 97bd 9168 17bd f331 3ebc 49c2 0a3d
000001e0: 7c90 653b 1a6b c2bd feb8 ab3d 52aa 80bc
000001f0: 921b 04bd a455 d9bb dc1d 2ebd f248 163d
00000200: 26be ca3d 46a0 4b3d 8d73 edbb c718 8c3c
00000210: 4997 0c3d eec4 bc3c 4ac5 253c 6fe4 76bd
00000220: 1fdd 0dbd 73c5 803d de06 3abc 23f6 6dbd
00000230: 3400 b03d 72e3 1ebd f9e8 eb3d a994 573d
00000240: 437e 9f3d f4b9 9bbc bae9 493d 3f5e 963b
00000250: ce2c 843d 15f4 8cbd cac4 27bd 8420 763c
00000260: 762c 413d b0b5 283d 9db1 203d f9a1 9ebd
00000270: d591 9d3d 528d cfbc 8e14 6c3d b3ff 82bd
00000280: e2d0 35bd 0ff6 103d 0734 95bd 7cb5 c63d
00000290: 6078 67bd 1530 a4bd 980a 84bd 3de4 b23d
000002a0: cd23 a73c f97c 9dbc 8786 82bd 680e 3e3d
000002b0: 21aa 8d3c c046 efbc ecce ba3d 958a adbd
000002c0: ed5f 17bd 94e0 963d bff8 5fbd 46cf 643d
000002d0: fa3b 613d 625a 0fbd f02c adbc c1ea 8fbd
000002e0: 2c75 1f3d cf03 b8bc 27f9 debc c75b 763c
000002f0: 3018 f83c 68d2 42bd 34f0 3a3d 7643 2b3d
00000300: 12fc d3bc b16f e9b9 4dc0 76bd 1fae 08bd
00000310: ab48 82bc a34f bebc 3d8b 803d f3da 80bd
00000320: e171 8bbd c840 e5bb 4ef9 cf3c 6fd5 593d
00000330: a361 653d d38f 38bd 84ac 53bd 3277 6bbc
00000340: 9c90 6d3d 28f4 c13c ec06 77bb 8dca ab3d
00000350: c91e 8c3d d1e7 5e3d 5642 4b3c 0e72 adbd
00000360: 3972 e1bc 9918 84bc d55b 4bbd 93db 92bd
00000370: dbcd 35bd 4669 803d 3228 5e3c 07e8 fa3c
00000380: 62b9 863c c9b3 2fbd d414 b6b7 9086 2ebd
00000390: 13e3 35bd 99ee bcbb 6751 4dbd bbdb 113d
000003a0: 92dc 943c 02e2 723d 3f44 c0bc 9ac7 2abd
000003b0: c94c 823d a6ce 92bd ce3c c03c 5304 583d
000003c0: 2616 72bd 1132 7e3d ae21 49bd 804d 8bbb
000003d0: 9e9f 683d 8a31 9cbd c97f d4bc ba39 4a3d
000003e0: 93c4 24bc 07db 533c cb2c 48bd c145 b23c
000003f0: bace 333c eab3 843c bca7 de3c c574 3fbd
0.02345695 -0.001938484 -0.042664636 -0.03373267 0.0031023854 0.06667685 0.08348911 -0.113582775
-0.06194457 -0.068952635 -0.013952898 -0.00020295125 0.035079155 -0.043768022 0.11762692 -0.02164833
0.0824842 0.06498198 -0.030747598 0.06596313 -0.012614868 0.071191736 0.056655504 -0.053910933
0.06605579 -0.048257455 0.074972995 0.07892739 0.07472409 -0.0015443311 -0.025379712 -0.009474624
-0.044834968 0.02356715 -0.020081904 0.044414476 -0.041996617 0.06936276 -0.04235268 -0.058697976
0.059249137 -0.06742835 0.05422976 0.09250231 -0.0733726 0.0199859 0.037241593 0.054508902
-0.007450076 0.07593682 0.06514807 -0.08440728 0.007923375 0.0642604 -0.07280599 0.025846401
0.043958012 0.012356941 -0.06511161 0.009067476 -0.052044164 -0.025489043 0.03906716 -0.07577263
0.07767113 -0.058533177 -0.089368194 -0.06689966 -0.03358066 0.054742053 -0.08436355 0.07134922
0.00029811542 0.039728317 0.031509805 -0.06762429 0.047620982 0.0088685 -0.03644142 0.015995994
0.06618015 -0.055374198 -0.049216103 0.011858754 -0.00915015 0.0026487312 -0.072765626 -0.062759876
-0.01645519 -0.038884345 0.057959776 -0.06357555 -0.0619261 -0.054699834 0.05540496 0.017719725
0.03218891 -0.08319371 -0.023796665 0.035409566 0.08289097 -0.07775714 -0.051497877 -0.012664565
-0.025031649 -0.081012994 0.0283513 -0.006430932 -0.04655554 0.026527429 0.048410155 0.016119694
-0.050805286 -0.015795404 -0.0075146076 -0.041792657 -0.07387249 -0.036964957 -0.0116085885 0.03387669
0.0035028746 -0.09493084 0.08384894 -0.015706215 -0.032252856 -0.0066325236 -0.042508945 0.03669066
0.09899549 0.049713396 -0.0072464407 0.017101659 0.034323964 0.023043122 0.010117838 -0.060276445
-0.034634706 0.062876604 -0.011354176 -0.058096062 0.08593789 -0.038791128 0.115190454 0.052632008
0.077877544 -0.019009568 0.049295165 0.0045888717 0.06453858 -0.068824925 -0.040959157 0.015022401
0.047161542 0.041188896 0.039231885 -0.077457376 0.07693831 -0.025335941 0.05763679 -0.06396427
-0.04438866 0.03539091 -0.07285314 0.09702584 -0.056511283 -0.080169834 -0.06447333 0.08734939
0.020402813 -0.01922463 -0.06373315 0.046400458 0.017293038 -0.02920854 0.091214985 -0.08473698
-0.036956716 0.07367054 -0.054680582 0.055861734 0.05498884 -0.034998305 -0.021139592 -0.07027198
0.038930103 -0.022462754 -0.027218414 0.01503653 0.030284971 -0.04756394 0.04563923 0.041812383
-0.025877032 -0.0004452444 -0.060241986 -0.03336918 -0.015903791 -0.023231333 0.062765576 -0.06291761
-0.0680883 -0.006996248 0.025387432 0.05318206 0.056001317 -0.045059036 -0.051678196 -0.01437168
0.05799924 0.023675993 -0.0037693335 0.08388243 0.06841809 0.054420296 0.012405952 -0.0846902
-0.027520286 -0.01612501 -0.049648125 -0.07170787 -0.044385772 0.06270079 0.013559388 0.030628217
0.01644582 -0.042896066 -2.170579e-05 -0.042608798 -0.044406008 -0.0057657477 -0.05012646 0.035609942
0.018171582 0.05929757 -0.023470042 -0.04169426 0.06362302 -0.07168321 0.023466494 0.0527385
-0.059103154 0.062059466 -0.049104385 -0.004251182 0.056792848 -0.07626636 -0.025939839 0.04937146
-0.010056633 0.012930638 -0.048870843 0.021761777 0.01097458 0.016199071 0.027179591 -0.04674222

blocks.0.bn.module.weight f4 [128]
00000000: 5cb4 823f 77ec 803f 76ae 833f 6ae0 823f
00000010: 6b95 823f fb9a 823f 0900 833f 6638 7d3f
00000020: c77c 823f 993d 803f f36f 7c3f 1057 823f
00000030: c998 823f 795f 823f 0ef7 7b3f 823d 7f3f
00000040: 547f 823f 6c92 843f 59a1 823f b3e6 7d3f
00000050: 4bfd 823f 412f 823f 20a8 7d3f aa74 7f3f
00000060: 4c34 7f3f 51f0 823f 8041 833f 5a1c 803f
00000070: 8998 7d3f 0e8a 7c3f 83ec 803f 3249 813f
00000080: fb0a 843f 7c48 7f3f 4ad9 7d3f 39a1 7e3f
00000090: 3198 813f 6c49 833f 0fcc 803f 87aa 833f
000000a0: 7b8a 823f 9d9c 7d3f 544e 833f 4c82 823f
000000b0: 7f83 813f 29af 813f 3a95 823f 9b9b 813f
000000c0: ea6e 823f a682 843f 60d1 823f d3e0 803f
000000d0: 3bc2 793f 277e 823f 52dc 7c3f 2949 843f
000000e0: 436b 823f 6e73 803f df81 813f b54b 7d3f
000000f0: 5196 7b3f 1a95 823f 3158 823f f2d0 823f
00000100: 9378 823f 9785 843f 2c24 803f 5649 823f
00000110: 5bd5 7c3f 089c 803f 0bd2 823f 9f36 7b3f
00000120: 494e 823f 9d95 813f e63e 7d3f 89ca 7c3f
00000130: 25c5 813f 5adc 7c3f 2b62 833f fa2c 7e3f
00000140: 1a57 7e3f 2b4f 7e3f a9cd 823f e46c 803f
00000150: 6374 863f a1da 823f 75a4 7d3f 5b96 803f
00000160: 6438 843f 1129 7e3f 41ef 7c3f e2a3 803f
00000170: 15dc 813f 6c58 7c3f c387 823f 8138 843f
00000180: 5b2b 813f 5854 823f 685b 823f dd85 833f
00000190: d534 833f 7ea4 823f 0ea3 7e3f d119 7d3f
000001a0: 3e3f 823f 38f2 7b3f 4479 833f 0fcf 7d3f
000001b0: 00f6 7e3f 77ad 813f 0180 843f e5ac 813f
000001c0: 6963 803f 1104 823f f354 813f 9de9 813f
000001d0: b434 813f 84c8 803f 457d 7e3f f923 7f3f
000001e0: 1b1c 823f b926 803f 1918 823f 4345 7e3f
000001f0: dc55 813f a862 7b3f 79d2 843f e98d 813f
1.0211291 1.0072163 1.0287616 1.0224736 1.0201849 1.0203546 1.0234386 0.9891418
1.0194329 1.0018798 0.9860832 1.0182819 1.0202876 1.0185386 0.9842385 0.9970323
1.0195107 1.0357184 1.0205489 0.99180144 1.0233549 1.0170671 0.99084663 0.9978739
0.99689174 1.0229589 1.0254364 1.0008652 0.99060875 0.98648155 1.0072178 1.0100462
1.0315851 0.9971998 0.9915968 0.99464756 1.012457 1.0256782 1.0062274 1.0286416
1.0198511 0.990671 1.0258279 1.0196013 1.0118254 1.013158 1.020179 1.0125612
1.0190098 1.0352371 1.0220146 1.0068611 0.97562 1.0194749 0.9877368 1.0334827
1.0188984 1.0035226 1.0117759 0.98943645 0.9827624 1.0201752 1.0183164 1.0220015
1.0193046 1.0353268 1.0011039 1.017863 0.98763055 1.0047617 1.022035 0.9813022
1.0180141 1.0123783 0.989241 0.98746544 1.0138289 0.9877373 1.0264333 0.9928738
0.99351656 0.9933955 1.0219012 1.0033231 1.0504268 1.022297 0.99079067 1.0045885
1.0329709 0.9928141 0.9880257 1.0050013 1.0145289 0.9857242 1.0197681 1.0329744
1.0091356 1.018199 1.0184145 1.0275227 1.0250498 1.0206449 0.9946755 0.9886752
1.017555 0.9841647 1.0271382 0.9914407 0.99594116 1.0131062 1.0351564 1.0130888
1.0030338 1.0157491 1.010405 1.0149418 1.0094209 1.0061193 0.99409896 0.99664265
1.0164827 1.0011817 1.0163604 0.99324435 1.0104327 0.9819741 1.0376731 1.0121433

blocks.0.bn.module.bias f4 [128]
00000000: 93bb e03c 867f 75bc 2ae9 ad3c 6671 b63c
00000010: 4b23 bc3c 7271 b3bb c5a7 be3c bfef 3ebc
00000020: 42b7 a13c 76f3 ba3b d744 23bc beae 9f3c
00000030: 9e9e 8fbb 442b 963c 73db 56bc d458 3abc
00000040: 3833 b33c f56f f53c 098e bc3c 2511 61bc
00000050: bbac 923c e91e edbb df77 823c b3e7 36bc
00000060: d541 213b c576 973c f800 203c b2d3 1fbc
00000070: b3a3 8bbc 1c6c 90bc 11fb d7bb b7e2 a23c
00000080: 417d 183d b9e4 72bb 7f8d 91bc 07f9 9d3c
00000090: ea10 1d3b 58ac a13c 3032 a63b 5eb8 8f3c
000000a0: a820 b73c 768c 36bb 5c91 583c e969 953c
000000b0: 0242 a139 bca5 803c 35f6 a53c a599 723c
000000c0: f090 b13c 2a1f d13c b525 993c 42ca 53bb
000000d0: d198 203c ed04 ba3c 020d 41bc ef6c a43c
000000e0: 117f 9e3c aa3c 893b b501 bebc 40be 45bc
000000f0: 4dd2 533c 8fd1 8e3c 64ed 903c 926c e53c
00000100: e2da 783c 1790 bf3c ec2b abbc 4aff c93c
00000110: 6a3c 80bc b73b b0bb 20c7 a43c c3ce 643c
00000120: a633 983c 84b7 adbb 32d2 4abc e48d 34bc
00000130: 9d26 833c 9f85 28bc 0777 b73c adba 8a3b
00000140: d7cd 75bc cde6 83bc 1cb5 9c3c 96bc 613c
00000150: cef5 d83c b92d eebc 5e04 5cbb 3048 ad3b
00000160: f651 ce3c 645c 24bc 1814 9ebc b7ab 2bbc
00000170: 5f07 433c c851 85bc 3f35 023c c0a5 c53c
00000180: 9f50 29bc ca87 863c 6665 953c c206 ba3c
00000190: 4cc3 803c 4d63 573c fcbb 27bc 6071 1e3d
000001a0: e877 a03c 87cc 8ebc 1cf4 d13c 90e9 c039
000001b0: 65f2 4fbc 3308 b93b 3c2a 023d 18b4 c43c
000001c0: 5c2a 35bb 5cde 573c b372 ecbb 31a7 f6bb
000001d0: dfd6 b93a 99d0 543c c860 e9bb 46d2 6cbb
000001e0: 1700 08bc 4838 09bc 0fd1 8f3c fc0e 9d3b
000001f0: 2a3a 2e3c 7b54 5ebb adb1 d33a de0f aa3c
0.027433192 -0.014984017 0.021229345 0.02227087 0.022966048 -0.00547617 0.023273358 -0.01165384
0.019740704 0.0057052923 -0.009965143 0.019492503 -0.0043829223 0.018331178 -0.013113844 -0.011373717
0.021875009 0.029960612 0.023016946 -0.013736998 0.01790463 -0.007236351 0.0159263 -0.01116364
0.002460589 0.01848925 0.009765856 -0.009755062 -0.017045831 -0.017629676 -0.0065912087 0.019883497
0.037228826 -0.00370626 -0.017767666 0.019283785 0.002396638 0.0197355 0.005071901 0.017543968
0.022354439 -0.0027854717 0.01321825 0.018238978 0.00030757493 0.015704028 0.020259002 0.0148071395
0.021675557 0.025527555 0.018694738 -0.00323166 0.009802059 0.022707427 -0.011782886 0.020071475
0.0193477 0.00418814 -0.023194173 -0.012069285 0.012928558 0.01743391 0.017691322 0.028005872
0.0151889045 0.023384137 -0.020894967 0.024657864 -0.015653808 -0.0053782123 0.020114481 0.013965311
0.018579315 -0.005301418 -0.012379216 -0.0110201575 0.016009623 -0.010285764 0.022395624 0.0042336793
-0.015002689 -0.016101265 0.019129328 0.013777873 0.026484396 -0.029074537 -0.003357194 0.0052881464
0.025185566 -0.010031793 -0.01929669 -0.010477952 0.011903613 -0.016274348 0.007947265 0.024126887
-0.010334163 0.016422171 0.018236827 0.0227083 0.015718125 0.013146234 -0.01023769 0.03868234
0.019588426 -0.01743151 0.025629096 0.0003679511 -0.012692069 0.0056467294 0.03177856 0.024011657
-0.0027643656 0.013175573 -0.0072158216 -0.007527255 0.0014178416 0.012989187 -0.007122133 -0.0036136075
-0.008300803 -0.008375235 0.017555742 0.004793046 0.010633985 -0.0033924866 0.0016150974 0.02075952

blocks.0.bn.module.running_mean f4 [128]
00000000: bec7 b3bb d47a 8d3b 3907 df3b ec06 a8bc
00000010: 66f7 61bd 47e0 13bd ce4e 36bd 8b57 d8bb
00000020: 3bed a0bc 5f82 f93c e8bb 033b df6e 1abd
00000030: 4b9f b43b f638 53bd 2cd8 0dbc 9029 84bc
00000040: 9994 1cbd 686a 21ba 9275 d6bc 5267 e3bc
00000050: 4f78 e0bb f9ab 473c 2a8f 92bc fe26 823b
00000060: ccc6 23bd 7d4b bebb f250 f1bc 2db5 403d
00000070: 9f94 9dbc 2e44 b5bc 2496 553b c8d6 d23c
00000080: f723 fe3c 0aa0 433d 5116 013d 54fa f3bc
00000090: c090 84bb 9616 08bd 1e2f b5bc 40cd 95bb
000000a0: ecda e0bc 2b06 133d 09d0 aa3c 35de 0cbd
000000b0: 867c bcbc 2cc6 3dbc f16c 95bd 5649 0ebd
000000c0: 3c50 293d aada 733b 9ce0 76bd d5de 98bc
000000d0: 5d94 dd3c 83f2 bf3b 7d08 91bc d4a1 dd3c
000000e0: a9cc 1ebc 48a2 42bc b78a 0d3d 0ebc d9bc
000000f0: 6835 bcbc 2c89 01bd bd6c b13c 213c 96bb
00000100: c6bc c2ba 0c9c 06bc 8def f8bb 8cc4 223d
00000110: 7656 863c 2076 feba ea69 c43c c257 c23c
00000120: 8e72 2bbb e053 523c e1b8 3c3b 20a2 08bd
00000130: e023 0bbd befe 0d3d 39f5 a9bc 54ea 843c
00000140: dbf6 4ebc 0084 5e3c 0585 81bd 3e99 803a
00000150: 83c9 8c3b 09aa 0e3c 9c8f d63b 7bd0 a1bc
00000160: 98c3 2b3c 6b50 8c3c 526e c33c fc53 8f3c
00000170: 7b8e 10bd a904 f33b a4d6 b03c 0445 5aba
00000180: 1f48 403b 90d1 b93c 985e 82bc 040f e33c
00000190: 02eb 993b 4d8f 0abd 117a b63a 8bf4 923c
000001a0: 7210 7dbc 307f f43c ad77 d9bc 29ba ed3c
000001b0: 3177 163c e086 bb3c 25cd 2fbd 0078 14bd
000001c0: d01d a3bb d5c6 06bc a875 373c 11cc 9cbb
000001d0: d5e1 33bc e3bb 98bc 0caa 6cbb ea3d 283c
000001e0: 234b f03c 94ea b3bb 06fe f33b 69cf 2fbd
000001f0: 83a2 a4ba 7126 afbc f028 433c 0380 02bc
-0.0054864576 0.004317621 0.006806281 -0.020511113 -0.05516758 -0.03610256 -0.044508748 -0.006602233
-0.01964437 0.030457674 0.0020101015 -0.03770339 0.0055121533 -0.051567994 -0.008657496 -0.0161331
-0.03822765 -0.00061575184 -0.026179109 -0.027759228 -0.0068502794 0.012186998 -0.017890532 0.0039719334
-0.03998451 -0.0058073387 -0.029457543 0.047047783 -0.019235907 -0.022127237 0.0032590711 0.025737181
0.031023009 0.047760047 0.031515423 -0.029782452 -0.004045576 -0.033224665 -0.022117194 -0.004571587
-0.02744814 0.035894554 0.020851152 -0.0343916 -0.023008596 -0.011582892 -0.072961695 -0.034737907
0.041336283 0.0037209191 -0.060272798 -0.018660942 0.027048284 0.005857767 -0.017704243 0.027054705
-0.0096923495 -0.011879511 0.034556117 -0.02657893 -0.022974685 -0.031624958 0.021658296 -0.0045848046
-0.0014857284 -0.008215915 -0.007596916 0.039738223 0.01639865 -0.0019413866 0.023976285 0.023723487
-0.002616081 0.01283738 0.002879672 -0.03335774 -0.03396976 0.03466677 -0.020746814 0.016225018
-0.012632097 0.013581276 -0.063241996 0.0009811295 0.004296483 0.008707532 0.0065478813 -0.019752732
0.010483645 0.01712819 0.023856316 0.017496102 -0.03529213 0.007416327 0.021586724 -0.0008326324
0.0029339863 0.022682935 -0.015914246 0.027717121 0.0046972046 -0.03382807 0.0013921877 0.017938873
-0.015445815 0.029845804 -0.026546324 0.029019432 0.009183691 0.022891462 -0.04292025 -0.036247253
-0.004977919 -0.008226116 0.011197485 -0.004785069 -0.0109791355 -0.018644279 -0.0036112098 0.010268668
0.029332703 -0.0054906104 0.0074460534 -0.04292241 -0.0012560639 -0.021380635 0.011911616 -0.007965091

blocks.0.bn.module.running_var f4 [128]
00000000: 19e5 a03b 1c23 763b 579b 893b 08bf a13b
00000010: 1382 9b3b 1b29 833b 7911 b73b 50bd c23b
00000020: 3f0d a83b beef a33b f414 9e3b 2a5d d13b
00000030: 1c1b 8b3b 78d1 a83b df65 af3b 881d 9d3b
00000040: 3113 cd3b 5d3a 813b e115 0c3c 9473 b83b
00000050: 7562 803b 17bb 963b eee1 b13b e5aa 883b
00000060: 0e59 b93b 3d1f 853b 56a5 723b b404 b03b
00000070: db8c a03b 2a25 c33b 22e1 a03b 0760 993b
00000080: 5f8a e63b b4c1 cf3b 9e4a be3b f7d0 923b
00000090: d5b5 6b3b d13a 8d3b d0ae 873b 7208 903b
000000a0: 986f b13b ac21 d13b 2805 9d3b 08ad b83b
000000b0: 86a0 a73b 7810 963b 1f81 c43b 6220 bd3b
000000c0: c44a 0e3c fc8e 883b 1f83 b03b 6648 813b
000000d0: 2bbb ba3b a983 823b ab6e 903b f4d0 ae3b
000000e0: 1d79 b13b 6099 8c3b 0fac 0b3c c6c1 8c3b
000000f0: eaeb 893b 06ba 933b 3c68 cb3b 3371 993b
00000100: ceb2 a23b 040a 863b 8a7d 803b a0a2 fb3b
00000110: 99a1 993b 11b7 883b bb7e ab3b ae9c b23b
00000120: 5d7a 813b 5d05 983b 2e4a 913b 1b44 a03b
00000130: 17bc ae3b 2b92 b33b 048b a13b 6cb5 9a3b
00000140: b4d4 a03b 521a 743b 15a7 ad3b 6b1a b93b
00000150: 7e70 8a3b 7c72 a13b d07b c33b f631 b23b
00000160: d86b a33b 7dd0 8d3b 5841 9e3b d40f cc3b
00000170: 0218 ad3b f4fd 9c3b b519 8d3b b832 7f3b
00000180: 6487 803b 29c1 a63b c132 bb3b 8896 953b
00000190: b3a1 793b 2390 7c3b 7be8 a43b 569a e93b
000001a0: 79d3 b73b 7ffd bd3b 64da 863b 0569 c93b
000001b0: deb3 823b 6022 993b b3fa 913b 5ab3 a13b
000001c0: 0e66 8f3b 1a47 ab3b e2cd 913b f2fb 8b3b
000001d0: 927f 723b 64c8 b93b 0ae5 b93b 135f a73b
000001e0: b0ab d33b 1410 823b b73f 9b3b cd37 873b
000001f0: 18c8 a53b 48a5 cd3b 6359 993b b357 933b
0.004910123 0.0037557548 0.004199426 0.004936103 0.0047457307 0.004002703 0.0055867997 0.005942978
0.005128532 0.0050029447 0.004824275 0.00638928 0.004245175 0.0051519237 0.00535272 0.00479478
0.0062583913 0.003943725 0.008550138 0.0056290124 0.003917987 0.0045999396 0.0054285442 0.004170763
0.005656368 0.004062562 0.0037024817 0.0053716544 0.004899604 0.005955358 0.0049096504 0.004680637
0.007035538 0.00634023 0.005807235 0.004480477 0.0035966535 0.00430999 0.0041407123 0.004395538
0.0054149143 0.006382188 0.0047918744 0.0056358613 0.0051155714 0.0045796 0.0059968377 0.0057716826
0.008684818 0.0041674357 0.0053867246 0.003945398 0.0056985817 0.0039829803 0.004407724 0.0053349677
0.005416049 0.0042907447 0.008524909 0.0042955605 0.0042090314 0.0045082597 0.006207494 0.004682684
0.004965163 0.0040905494 0.0039212154 0.0076792985 0.0046884534 0.004172214 0.0052336133 0.0054508066
0.0039513544 0.004639311 0.0044338917 0.0048909313 0.0053324807 0.005480071 0.004929902 0.004721334
0.0049081687 0.0037247133 0.0052994587 0.005648901 0.004224836 0.0049269777 0.0059656873 0.0054380847
0.004987221 0.0043278323 0.004829567 0.006227473 0.005282403 0.0047910158 0.004306043 0.0038940143
0.00392239 0.0050889445 0.0057128374 0.004565064 0.0038090765 0.003853806 0.0050325966 0.007128994
0.0056099263 0.0057980414 0.0041153897 0.0061465525 0.003988727 0.0046732873 0.0044549345 0.0049347105
0.0043761795 0.005226982 0.004449592 0.0042719776 0.0037002307 0.0056696404 0.0056730555 0.0051077693
0.0064596757 0.003969202 0.00473782 0.004126525 0.0050592534 0.0062758066 0.004679845 0.0044965385

blocks.0.res_proj.weight f4 [128, 768]
00000000: 2fa0 923a 146e 57bc c229 cd3c 456b 033b
00000010: 6dbb 333d aa2d 21bc 4574 253d 903c 01bd
00000020: 60a3 b23b 051b 03bd 1a7e 8b3c fe55 3f3d
00000030: 8cad 2d3c 40bd d3bb ff4c 533d 3cdb c1bb
00000040: 9973 d33c 74be 10bc 6330 3bbd 16cd 193d
00000050: 1603 18bd 8ea7 813c aae8 3dbd caff 643d
00000060: e212 d33b 5685 4d3d a22b 20bc e3cf 363d
00000070: 1d56 b3bc d049 23bc 2ecf 7fbb 2379 cfbc
00000080: d232 37bd f211 083d 2dd2 a43a 61ea 613b
00000090: a08e b2bb ba3d 07bd a540 403d 8c58 febc
000000a0: 230b 313d 7605 3638 8a97 c33a e5d6 373c
000000b0: a547 bcbc 2fdb 52bb 1216 39bd 1835 f4bb
000000c0: 6d09 0a3d b90d ecbb 2f8a 6bbd f72b 61bc
000000d0: c0ca 49bd dfcc c2bc 23ca c2bc a0d2 e93c
000000e0: ed9e 8e3c 85f2 94bc c20d ea3b a277 403d
000000f0: b8bf f23b 4ebe 27bc 8425 6ebc 263d 04bc
00000100: 4b40 6c3c f435 e9bc 0901 bdbc d8e2 9e3b
00000110: cd69 24bc d538 7abc 3a05 7dbc d18a 2f3d
00000120: 9b9b 7dbc 222c 993c 0ef6 17bd 84da a13c
00000130: f9bc 2a3d 8af0 16bd 3b86 f23c 7e7a e2bc
00000140: d6e6 9d3c a31c c43c d360 083d 99d6 943c
00000150: 4909 b43b 2085 34bd e616 3dbd a830 b13c
00000160: 6c53 803c c739 193d fcaf 9dbc 2db7 5bbc
00000170: c741 79bc f8cc cb3c 31ae d4bb 7208 90bc
00000180: 77e1 883c 2ead 353a 0d51 893c 4e21 3d3d
00000190: 0f22 303c 2fe0 5d3d 1bc0 77bc 6fbf 09bc
000001a0: c1da 27bc a773 943c 0245 25bd 073d 3fbb
000001b0: 5a6f f0bc ac2a e23c 192b 8a3b 5953 1a3d
000001c0: a958 683d 38c6 023a d9c5 5bbd eba9 c9bb
000001d0: b2c2 313c e4e8 0e3d c13c 763c d388 ba3c
000001e0: 9192 21bc 28ed 73bc 7b91 60bd 86cb 833c
000001f0: f4b9 1dbd 09b7 3ebd 4452 80bd 2218 813d
00000200: 069c 663c ee0e 463b 707d ac3c bb18 583d
00000210: 20a4 24bd bd17 bc3c 85e9 853c dee4 8dbb
00000220: 723a a0bc 11da ddbc 1927 363c fb01 c5bb
00000230: 5243 b83c d9c5 6b3d 6b29 633d f0fe b4bc
00000240: e495 ea3c 64e7 02bd 37c9 223d 0e6c 30b9
00000250: e145 93bb e763 84bc dfef 37bd 2ba1 72bb
00000260: 8298 efbc 2147 a63c 2dfa be3c c071 593d
00000270: 7fa8 ac3c dcb2 6e3d 9d80 8cbc ea5b 983c
00000280: 8353 0bbd 6b50 f2ba dded 19bd 9eb8 4d3c
00000290: 5fe9 76bc 6d90 34bd f493 54bd c188 b83b
000002a0: b9ca 293d 8652 27bd 0ef2 83bc a24c 1dbc
000002b0: 28e0 edbc eaf3 083c 6859 6cbc 76cf 73bc
000002c0: 5d15 a23c 2b1e f63c 80ab a8bc bc70 993a
000002d0: 0cef 00bd a390 2b3d ee5a 76bb 13d2 73bd
000002e0: e010 4c3c 2399 d8bc 0879 a3bc e2f5 e1bb
000002f0: a665 253d e1d8 a1bc e6a5 ccbc 6d48 1ebd
00000300: 6f61 963a e30f f8bc 5b79 c13c 815d 7d3a
00000310: 4263 1e3d 603b 50b9 c6d3 4e3c 1958 00bd
00000320: 4f76 5dbd 7c2d 90bb 37c1 de3b 7a41 9b3c
00000330: 9e73 07bd ab29 02bb aeb0 953c f56b 3abd
00000340: b16c e13c 21e3 783c 5283 9fbc b56a 9a3c
00000350: 7c11 15bd 735e d6bc 018c 1cbd d8e3 03bd
00000360: dc85 8abc 31c6 433d b6f7 a83b ee92 313d
00000370: 3862 f0bc e454 2d3d 3122 59bc 4d1c 173c
00000380: 6bd9 2fbd ce6b 7f3b 4a76 90b8 f1ee 163d
00000390: 6074 0bbd 9f16 e53c 31b8 deba a889 da3c
000003a0: 3110 e53c d63d d6bc 44dc 9cbc a072 cb3b
000003b0: 5684 7cbc 55bc 8ebc 7ddf 4fbd 7fdc 4fbb
000003c0: 944e f13c 6af0 0bbc f644 86bc 678a 9abd
000003d0: aed0 3dbc 692a 4bbc 2321 27bd d577 b83c
000003e0: 9abd 41bc 137e ed3c 46ea 513d 302e 42bc
000003f0: 8724 013d 609a 05bd 201b b8bb 302e 473b
0.0011186654 -0.013148803 0.025044326 0.0020052951 0.043879915 -0.009837547 0.040394086 -0.031551898
0.0054516047 -0.03200819 0.017027903 0.046712868 0.010600459 -0.0064617693 0.0515871 -0.0059160274
0.025811957 -0.00883447 -0.045700442 0.0375491 -0.037112318 0.015826967 -0.046364464 0.055908002
0.00644146 0.050175987 -0.009776028 0.04463185 -0.021891648 -0.009966329 -0.00390334 -0.025326317
-0.0447262 0.03322024 0.0012574844 0.0034471976 -0.005449131 -0.03301785 0.04693665 -0.031048082
0.04322351 4.3397267e-05 0.0014922481 0.011220668 -0.022983382 -0.00321741 -0.045187064 -0.0074526183
0.033700395 -0.0072037843 -0.05750483 -0.013743392 -0.049265623 -0.02377933 -0.023778027 0.028542817
0.017409766 -0.018182049 0.0071427533 0.04698909 0.0074081086 -0.010238243 -0.014535312 -0.00807122
0.0144196255 -0.02846811 -0.023071783 0.004848819 -0.0100349905 -0.015272339 -0.015443141 0.042856995
-0.015478994 0.018697802 -0.03709989 0.019757517 0.041684125 -0.03685049 0.029605022 -0.0276463
0.01927511 0.023939436 0.033295464 0.018168734 0.005494271 -0.04407227 -0.046164416 0.021629646
0.015664779 0.037408616 -0.019248955 -0.013410372 -0.015213436 0.02487801 -0.006490492 -0.017582152
0.016709073 0.0006930408 0.01676228 0.04617434 0.010750308 0.054168876 -0.015121485 -0.008407458
-0.010245026 0.018121554 -0.040349014 -0.0029180662 -0.029349972 0.027608238 0.0042165634 0.037677143
0.056725178 0.00049886433 -0.05365548 -0.006154289 0.010849642 0.03489007 0.015029133 0.022770321
-0.009861604 -0.014888085 -0.05482624 0.016088258 -0.038507417 -0.046561275 -0.06265691 0.06303431
0.014075285 0.00302213 0.021055907 0.05275796 -0.040195584 0.022960538 0.016346702 -0.0043302616
-0.019559119 -0.027081521 0.01111772 -0.006012199 0.022493038 0.05756173 0.05545942 -0.02209422
0.028635927 -0.031958953 0.039742675 -0.00016824921 -0.004494414 -0.016160918 -0.044906493 -0.0037022333
-0.029247526 0.020297589 0.023312652 0.053086996 0.021076439 0.058276042 -0.017151171 0.018598516
-0.03401519 -0.0018487101 -0.03758036 0.012556223 -0.015070288 -0.044083048 -0.05189891 0.0056315367
0.041453097 -0.040850185 -0.016106632 -0.00960079 -0.02903755 0.008358935 -0.014425613 -0.0148810055
0.019785577 0.030043682 -0.02058959 0.0011706571 -0.031477973 0.041885983 -0.003759082 -0.059526514
0.012455195 -0.026440209 -0.019955173 -0.0068957666 0.040380143 -0.019756736 -0.02498145 -0.03864329
0.0011473129 -0.030281013 0.023617437 0.0009665117 0.03866888 -0.00019858545 0.012623733 -0.031334016
-0.054067906 -0.0043999534 0.0067979353 0.01895212 -0.033069246 -0.0019861262 0.018272724 -0.045513112
0.027517648 0.0151908705 -0.019471798 0.01884971 -0.036393628 -0.026168084 -0.038219456 -0.03219971
-0.016909532 0.047796432 0.0051564826 0.043353014 -0.02934371 0.042317286 -0.013252781 0.009223056
-0.042931955 0.0038974169 -6.888488e-05 0.036848966 -0.03404653 0.027964888 -0.0016992149 0.026676968
0.027961822 -0.026152533 -0.019148 0.0062087327 -0.015412411 -0.017423788 -0.050750244 -0.003171712
0.029456414 -0.008541206 -0.016390305 -0.075459294 -0.011585398 -0.012400248 -0.040803086 0.022518078
-0.01182499 0.028990781 0.05124881 -0.011851832 0.031528976 -0.032617927 -0.005618468 0.003039252

blocks.0.res_proj.bias f4 [128]
00000000: 99f6 6b3c 1263 ef3b 8dc8 783c 5772 b73b
00000010: aa2b 333d 768b 483c f599 07bb 229b d63b
00000020: e498 d73c e4e8 3abd ad10 3c3c 0038 133c
00000030: 4e55 c639 fa39 323c 611e e4bc 3ef9 25bc
00000040: e200 3d3d a073 f23b 3531 3a3b b872 85bc
00000050: 0db7 083d 4b21 04bd 80d6 fabc 4872 14bc
00000060: f97d 64bc 9573 ba3c 0e9a 3dbc 9351 dfbc
00000070: 68c4 0e3c c28a 84bd 0659 c9bc 51d7 b6bc
00000080: 6314 913c 4b97 6a3c 070c 90bc e272 82bc
00000090: 2214 c7bc 5a06 5b3c 9a37 ebbb 29c1 c8bb
000000a0: a894 233d 0c82 b8bc dd00 2cbd f311 bb3c
000000b0: e5c3 8d3c 0043 15bc 953c 30bc 0092 44bc
000000c0: 7ab1 80bc 71ee 293d a481 90bc fac7 633b
000000d0: 16fb 28bc 418a ab3c 8daf 583c 56b5 db38
000000e0: a8fb 883c bcba 0ebd 55a0 23bd c24e b2bc
000000f0: a93f 2c3d 417e 9fbb 7549 6f3c d851 4abc
00000100: 0281 61bc 9be4 333d a7b1 4bbd ce36 e3bc
00000110: 9e05 923c 17d1 bfbc 6ad1 be3c de98 e33c
00000120: 0d71 813b 396c 203b f270 77bc 3e86 eabb
00000130: 672a 85bc fca9 07bd 8614 8f3c d382 bb3b
00000140: 578d 46bd 951c 68bb e361 82bc ba74 b53c
00000150: e0ff 50bc be5e 12bd 81ff 11bb 372d 103d
00000160: 0b69 81bb af74 4bbc 8fb7 e3bc cbae 48bd
00000170: 5391 273d 624d 2ebc 060e 8f3c 64c0 3b3d
00000180: ce16 b63a 3350 04bd 2101 c13c 925d 463d
00000190: b260 493c dc46 d93c cd95 fdba f86f 22bc
000001a0: a4d4 003d fee5 03bd 3058 2fbc 1214 543a
000001b0: 52a3 5a3c 9146 613b 572f 153d 808b 49bc
000001c0: 8ac8 97bb e875 2ebc 34f4 02bd b14e 8fbb
000001d0: ce4c 86bc c780 613c a362 2dbd 412d 4a3c
000001e0: aefe 1c3c 0ab9 d13b 78b3 babc 9d2d 463d
000001f0: 75b9 843a c380 ab39 c6b8 14bd bb4b 07bb
0.014402055 0.0073055113 0.015184534 0.005598347 0.043742813 0.012240281 -0.002069113 0.006549255
0.026318021 -0.045632258 0.011478585 0.008985519 0.0003782906 0.0108780805 -0.027846517 -0.010130225
0.04614342 0.0073990375 0.0028410677 -0.016290054 0.033377696 -0.032258313 -0.03061986 -0.00906045
-0.01394605 0.022760192 -0.011572374 -0.027260577 0.008713819 -0.064717785 -0.024578582 -0.022319468
0.017709916 0.014318298 -0.01758386 -0.015923921 -0.024301592 0.013368214 -0.007178259 -0.006126542
0.03993669 -0.022522949 -0.04199301 0.022835707 0.017305324 -0.009110212 -0.010756631 -0.0119977
-0.015709627 0.04148716 -0.017639942 0.0034756646 -0.01031377 0.020939948 0.013225448 0.0001047651
0.016721562 -0.034846053 -0.039947826 -0.02176607 0.0420529 -0.0048673456 0.014604916 -0.012348615
-0.013763668 0.043919187 -0.04972997 -0.027736094 0.017824944 -0.023415131 0.023293216 0.027782854
0.0039502443 0.0024478568 -0.015102612 -0.007157116 -0.01625557 -0.033121094 0.017465841 0.0057223826
-0.048474636 -0.0035417427 -0.015915817 0.022150386 -0.012756318 -0.035734884 -0.0022277536 0.03519937
-0.0039492897 -0.012417956 -0.027797488 -0.04899482 0.040910076 -0.010638567 0.017462742 0.045837775
0.0013892294 -0.032303046 0.023560109 0.04842908 0.01229112 0.026523046 -0.0019347012 -0.009914391
0.03145279 -0.03220176 -0.010702178 0.0008090149 0.013344603 0.0034374336 0.0364221 -0.012301326
-0.0046320604 -0.010648228 -0.03197117 -0.0043733944 -0.016394045 0.013763613 -0.042330395 0.012339891
0.009582205 0.006400232 -0.022790655 0.048383344 0.0010126071 0.00032711597 -0.036309026 -0.0020644504

blocks.1.conv.bias f4 [128]
00000000: 8f48 adb6 d6dc feb4 9000 2836 7e3c b036
00000010: 0d9c 91b6 689a dab5 00db 87b6 209c e136
00000020: 6929 1d36 04be 86b5 8a20 7a36 8dd6 13b7
00000030: 1a95 3436 e6c2 3f36 d4cf 2734 c4b3 41b6
00000040: cc04 3cb4 9a50 9036 0828 16b5 bd70 aab5
00000050: 89f8 b4b7 9933 a435 6bd4 9bb6 0d35 9736
00000060: 01cd c535 5cfe c636 f8fb 43b5 8680 a6b5
00000070: 5cf2 4b36 62f3 4a36 8628 a036 f32b f236
00000080: 303c b1b6 029f b1b6 ca7a a535 745a dd36
00000090: 5db7 bcb6 1f65 63b6 9bde 1936 2e0f b636
000000a0: bf91 62b6 6724 33b6 ee13 e9b6 fc01 ba36
000000b0: 6e4a b6b6 f67f 22b7 ce6f 2636 64b6 d336
000000c0: cd77 b9b6 ecfb 9036 5a5f 6a36 8082 2d33
000000d0: 0052 8536 d65f 90b6 39b9 a836 3c31 05b7
000000e0: ecc5 0836 c45b 77b5 0b82 fdb6 9923 af36
000000f0: 8242 3836 fae1 c536 a5cc 69b7 63ef 5fb6
00000100: ba2d 7636 ef8d 1437 808b 93b6 6a01 99b6
00000110: 96d7 d1b5 6b9a 08b7 056d 5bb7 dc9e 1db7
00000120: baca 9737 dfd0 36b6 aa77 d0b5 5911 a0b6
00000130: a965 b336 f4c3 8eb6 54e2 fb36 0f1f 7bb7
00000140: d237 b9b6 5ee1 45b6 375e 0237 df36 2a37
00000150: 4e8c 3f37 6edb 3ab6 fb4a b4b6 fddb abb4
00000160: 0acd 25b7 5d6c 1eb6 8d45 0db6 9514 1db6
00000170: 69f3 dc35 222a e6b6 06e7 2837 a3c9 31b7
00000180: 7089 4a35 9ca7 8a36 a0a0 c0b6 fb92 14b5
00000190: dc76 fdb4 1be5 8cb5 fc3e e0b6 f8a4 eb34
000001a0: 350f 55b5 ee24 2a37 9528 d535 cab0 71b5
000001b0: 0a7b 4fb6 c3c4 5d36 571b f9b5 929b 00b7
000001c0: c23b 1737 64f0 62b6 e28c 11b7 d5f7 83b7
000001d0: 61fa a636 3775 f835 1a6c f5b6 148d d1b6
000001e0: f1a5 88b6 f109 fab6 8c9d 64b7 3c99 84b6
000001f0: 8a3b b136 48d3 5cb5 56a6 a136 6e34 0936
-5.1642487e-06 -4.7471866e-07 2.5034278e-06 5.252251e-06 -4.3395034e-06 -1.6287204e-06 -4.0488085e-06 6.723698e-06
2.3418927e-06 -1.003908e-06 3.7271843e-06 -8.811837e-06 2.6908879e-06 2.8574664e-06 1.5628694e-07 -2.8863878e-06
-1.751061e-07 4.3009177e-06 -5.593761e-07 -1.2698798e-06 -2.1573405e-05 1.2233969e-06 -4.6440887e-06 4.5063266e-06
1.4737308e-06 5.930471e-06 -7.3009824e-07 -1.2405369e-06 3.039043e-06 3.0242013e-06 4.773089e-06 7.2172784e-06
-5.282018e-06 -5.293522e-06 1.2329194e-06 6.5968434e-06 -5.624183e-06 -3.3884496e-06 2.292835e-06 5.42579e-06
-3.376146e-06 -2.6694267e-06 -6.9462612e-06 5.543463e-06 -5.4326874e-06 -9.685746e-06 2.4801006e-06 6.309523e-06
-5.5273763e-06 4.320862e-06 3.492422e-06 4.039839e-08 3.973255e-06 -4.302691e-06 5.028353e-06 -7.938881e-06
2.0380785e-06 -9.2148207e-07 -7.5551266e-06 5.2195505e-06 2.745685e-06 5.8973646e-06 -1.393553e-05 -3.336893e-06
3.6683473e-06 8.854534e-06 -4.3971813e-06 -4.55992e-06 -1.5634457e-06 -8.142185e-06 -1.30788e-05 -9.394917e-06
1.8095005e-05 -2.7241692e-06 -1.5532034e-06 -4.770391e-06 5.3464505e-06 -4.2547417e-06 7.506731e-06 -1.4967997e-05
-5.519928e-06 -2.9486469e-06 7.77054e-06 1.0145565e-05 1.1417154e-05 -2.7843885e-06 -5.373147e-06 -3.2011295e-07
-9.882506e-06 -2.360691e-06 -2.1051121e-06 -2.3406803e-06 1.6462119e-06 -6.859439e-06 1.006737e-05 -1.0596969e-05
7.545086e-07 4.132233e-06 -5.740745e-06 -5.534818e-07 -4.7211404e-07 -1.0497491e-06 -6.6830526e-06 4.3892192e-07
-7.937081e-07 1.0141388e-05 1.5881548e-06 -9.003676e-07 -3.0917022e-06 3.3046097e-06 -1.8559903e-06 -7.665616e-06
9.014215e-06 -3.381655e-06 -8.675475e-06 -1.5731823e-05 4.9763335e-06 1.8511554e-06 -7.3141537e-06 -6.245109e-06
-4.072434e-06 -7.451738e-06 -1.3626541e-05 -3.9517454e-06 5.2819423e-06 -8.226384e-07 4.817538e-06 2.044511e-06

blocks.1.conv.lin.weight f4 [128, 128]
00000000: afd3 033e a7ec 42bd 379f e3bd a948 7dbc
00000010: dc78 adbd 62df 743d 9abe 11be 2856 063d
00000020: 133d ddbd 2c3f d43d babd 04bd ec7a 0cbe
00000030: fc3e 233e 8016 353d c039 be3d 3aed fd3d
00000040: 4775 bfbd e12f fa3c 10a4 0fbe dbdb 8b3d
00000050: ee67 d5bd 5b2c dfbd 74f6 cd3d 4489 303b
00000060: 624b ea3c 90ce 91bd aec0 8a3d 3126 e4bd
00000070: 9c8c d03d 3eba 21bd 613a 253e a8c1 e3bc
00000080: 0b3e 33bd 30af eebd 02d5 fbbd 3df1 c93c
00000090: 61d8 6a3d 8b15 dcbd 1adc 28bc b50a 47bd
000000a0: ae08 15be 8ac1 2d3d 6ca1 dcbd cf09 d1bd
000000b0: 503f 163e eb3d 76bc e058 703d c401 56bd
000000c0: 39ad e63d e447 cd3c 136b 853d 3493 2ebe
000000d0: c82b af3d a73c d43d f8cc 2dbe fb20 e83d
000000e0: 2093 52bd d6ae 34bd 30a7 693d 86d1 733c
000000f0: 34ee d83d 3801 2ebe 0992 aebd 2e31 8a3d
00000100: 032b 09be 4750 8c3d 7ad9 49bd 219e d7bc
00000110: 37d6 d43d 7dae a33d f405 54bd 8239 1bbe
00000120: 5aee ca3d 9178 c93d 2513 203e 1395 96bd
00000130: c99b 05bc 0656 23bc 1260 213d 3163 90bd
00000140: d9b1 a2bd f5db e73d 69cd cc3d 09ce 07be
00000150: 1514 83bd af19 f33d d844 ec3d 1e9c 3d3b
00000160: 0023 933c 04bd 85bd 2ca7 453c 9b85 95bd
00000170: d0ce 6a3b 5ea3 a5bd dc81 cfbd 8577 b6bd
00000180: dae7 25be 2a8c f2bd 3a58 ab3d 284b 173d
00000190: 071d 353d c918 053c 602f cabd e3f1 33be
000001a0: 5262 de3b 0c92 b9bd 2f0c bc3d 3867 c23c
000001b0: 7b99 5d3d a096 ec3d 7f5c 4a3c e89a 663d
000001c0: 25b7 633d b21d 0e3e a699 c93d 8991 b4bd
000001d0: e50d a63d 264f 59bc db60 98bd 4969 e3bd
000001e0: 8b00 bf3d d929 95bd b6b5 ecbc e96d fe3d
000001f0: 31d5 a43d 9e39 2ebe c2d5 c6bc e225 433c
00000200: 520b e63c c14b 813d ae20 833d 954b 133e
00000210: d70b 803c 8883 9dbb 8c9b d83d 0961 2fbd
00000220: 617f d03c 22e3 863d 6976 153e 0a9c 81bd
00000230: ee96 18be 3d90 debc 0845 3f3d 416d f8bb
00000240: ef80 ddbc 82ea 913c 2a50 433d e9cf 1e3d
00000250: 1b11 8dbb 4dff 5e3d ea4b 703d 0234 30bd
00000260: ba17 18be 1908 0a3e 8785 413c b8be adbd
00000270: 9778 3fba 4ad9 97bd 344a 073d 8bfb 0dbd
00000280: c4fe 9bbc d8ee 5e3d 9605 d1bd 6917 073e
00000290: 875c aa3d 2dd5 5b3b 51b0 a2bd 3da4 163e
000002a0: 4c36 cf3d 3629 d3bd 6f51 d83d 7a6e fbbd
000002b0: 0157 fa3c a901 fbbd 1e2a 993c 9b54 88bd
000002c0: 721b 0f3e d1e5 db3d b724 b0bd 6ed1 22bd
000002d0: fb8d d7bd 20b2 c93d 8d56 d6bd b787 a5bd
000002e0: 4b0e 1dbe 7cd8 cb3d 77ab 16be 2e90 2dbc
000002f0: f6db 28be beae 18bb 6324 203e 91be 2ebd
00000300: ac7f ed3d c265 0d3e 4b70 0c3e b708 323e
00000310: 4d41 09bc 3f80 b83d 964b c6bd 7e05 6a3d
00000320: dd97 313d 976f a23d 8163 c6bc ae3c 143e
00000330: fad8 3fbc 2659 83bd f43c 463d fdb8 62bd
00000340: a5fb 79bd cc77 c53d c88f 13bc 2b52 c7bd
00000350: d98b 2f3e 6101 0abe 8414 313d e528 cbbc
00000360: 7ecb 423c 7b25 babd 4041 223e 13db 273d
00000370: 432c 97bd 3dbe 92bb a82b d6bc 84a7 36bd
00000380: c650 b33d f61a c43c fe0a 2dbe 13fd d83d
00000390: 58e7 fd3d f48c a63c 3c98 93bd f043 f73c
000003a0: c076 003e 3e2a 133d ff5d 0b3d 1c08 d9bd
000003b0: c206 ce3d 4450 0f3e d731 d8bd 245a aebd
000003c0: 93fe b13d 03e0 ab3d 3925 f03d 6ef2 aabd
000003d0: 2938 eebd 2ef0 a53c 26c0 1fbd f4eb 90bd
000003e0: 6f49 1d3e 67de d53d ba8a 333d 56d7 d63d
000003f0: cd0e 5f3c ff29 223d 7b2d 82bd d0ac 823d
0.1287372 -0.04758897 -0.11114352 -0.015459218 -0.08470318 0.059783347 -0.14232865 0.03279701
-0.108026646 0.103636116 -0.0324075 -0.13718766 0.15941995 0.04421091 0.09288359 0.12398763
-0.09348541 0.030540409 -0.14027429 0.068290435 -0.10420214 -0.10897132 0.10056773 0.0026937285
0.028600398 -0.07119477 0.06775032 -0.11140097 0.10183069 -0.039484255 0.16135551 -0.027802303
-0.04376034 -0.11654508 -0.122964874 0.024651164 0.05733526 -0.107462965 -0.010306383 -0.048594195
-0.14554092 0.0424209 -0.10772976 -0.10206949 0.1467259 -0.015029411 0.058678508 -0.052247778
0.11263508 0.025058694 0.065145634 -0.17048341 0.085532725 0.10363131 -0.1697272 0.113344155
-0.05140984 -0.04411205 0.057044208 0.014881497 0.10592309 -0.16992652 -0.08523948 0.067476615
-0.13395314 0.06851249 -0.049279667 -0.026320519 0.10392421 0.079922654 -0.05176349 -0.15158656
0.09908743 0.09837449 0.15632303 -0.073526524 -0.008154818 -0.00996924 0.03939826 -0.07050169
-0.07944078 0.1132125 0.100001164 -0.1326219 -0.06400315 0.11870133 0.115365684 0.0028932164
0.017961025 -0.065301925 0.012063783 -0.07300874 0.0035828836 -0.080878004 -0.101321906 -0.08909515
-0.16201726 -0.118431404 0.08366437 0.03693691 0.044217136 0.008123585 -0.09872317 -0.17572741
0.006786623 -0.09061059 0.09182011 0.02373086 0.05410145 0.11552167 0.012351154 0.056300074
0.055594582 0.13878515 0.09843759 -0.08816821 0.08108119 -0.013263499 -0.07440349 -0.11104066
0.093262754 -0.072833724 -0.02889524 0.124233074 0.080484755 -0.17014167 -0.02427185 0.011910887
0.02808157 0.06313277 0.064027175 0.14384301 0.015630646 -0.0048069395 0.10576543 -0.04281715
0.025451364 0.06586291 0.14595951 -0.0632859 -0.14901325 -0.027168388 0.046696693 -0.0075813835
-0.02703902 0.017812017 0.047683872 0.038772497 -0.0043050176 0.054442693 0.058666147 -0.04301835
-0.14852801 0.13479652 0.011811621 -0.08483642 -0.0007304041 -0.074144915 0.03302975 -0.03466372
-0.01904238 0.054426998 -0.102061436 0.13192524 0.083184294 0.003354381 -0.07943786 0.1471109
0.10117778 -0.10310595 0.10562407 -0.12276931 0.030559065 -0.12256176 0.01869684 -0.06656762
0.13975313 0.107371934 -0.08600753 -0.03975051 -0.105251275 0.09848428 -0.10465727 -0.08082526
-0.15337484 0.099534005 -0.14713846 -0.010593457 -0.16490158 -0.0023297514 0.1563888 -0.042662207
0.11596617 0.13808349 0.13714711 0.17386137 -0.008377385 0.09008836 -0.096823856 0.057134144
0.04335772 0.0793144 -0.024217369 0.14476272 -0.011709446 -0.06413488 0.048397973 -0.0553522
-0.061031003 0.0964199 -0.009006448 -0.09732469 0.17143191 -0.13477089 0.043232456 -0.024799773
0.011889337 -0.0908918 0.15845203 0.04098041 -0.07381489 -0.0044782446 -0.026143864 -0.04459335
0.08755641 0.023938637 -0.16898724 0.10595145 0.12397641 0.020330884 -0.07206771 0.030183762
0.125453 0.035928957 0.03402519 -0.1059725 0.10059883 0.13995463 -0.10556381 -0.08513287
0.08691134 0.08392336 0.1172585 -0.08347021 -0.116318054 0.020256128 -0.039001606 -0.070762545
0.15360044 0.104428105 0.04383347 0.10490291 0.013614369 0.03959083 -0.06356331 0.063806176

blocks.1.bn.module.weight f4 [128]
00000000: 18ee 813f c6d3 823f 0f5f 833f f28d 823f
00000010: 9e23 833f 24c9 7e3f 0ac2 843f b974 7e3f
00000020: b99c 823f 76a2 813f f2ff 823f 9e6b 813f
00000030: d802 833f a302 833f 01ff 7e3f 6fd9 843f
00000040: 6ab7 813f 4d38 833f 4868 833f 9da8 823f
00000050: 5e6b 823f d7d4 7e3f 7ddf 7d3f 4a7a 843f
00000060: 4a62 843f 0212 823f 138e 823f f792 7e3f
00000070: cced 7f3f e644 843f dab8 823f 2f10 833f
00000080: 667c 7e3f f08c 813f 054f 843f 1f8c 823f
00000090: d299 823f 1c42 823f 1f40 803f c0c0 833f
000000a0: 8484 833f 4dd1 823f 19bc 833f dafd 823f
000000b0: d04b 823f 69eb 813f d907 833f 0d9c 823f
000000c0: 1436 833f fe51 813f 6b20 833f 290a 813f
000000d0: 48de 803f 0e85 843f 0865 823f 8696 7d3f
000000e0: 33c3 823f 894f 7f3f 6d9e 7f3f fbad 7d3f
000000f0: 0a3f 803f 5439 833f 2dd6 823f b65e 813f
00000100: 1499 823f 3771 833f a6ee 813f 457e 7d3f
00000110: 5d08 823f 0783 833f 0328 823f 4fd6 7f3f
00000120: 0b86 803f 3440 803f 13b3 803f fdae 843f
00000130: db77 823f d29f 813f 4f24 833f 8209 853f
00000140: ae8a 803f c01f 833f 412d 833f 4798 823f
00000150: 67bf 823f ac73 803f 6ce5 833f 32f8 813f
00000160: f5d9 813f 9eac 813f 118d 7e3f d9cd 7f3f
00000170: 3f46 823f 9348 813f 6a46 803f 458a 823f
00000180: 883c 823f acf9 813f 2dfd 813f 00e4 813f
00000190: b92e 833f 2a10 833f 4925 823f 265e 823f
000001a0: 0124 823f 4669 803f 091b 833f 7166 823f
000001b0: be92 7d3f 3079 7e3f 6b4c 833f 2368 823f
000001c0: 49e5 7c3f 9cbd 823f 5580 803f b6fe 833f
000001d0: 0564 833f a8e4 813f d748 7e3f c6a3 803f
000001e0: 819c 7e3f 7f93 823f 1414 843f 71ce 803f
000001f0: e080 823f bba5 823f df71 7d3f 65fb 813f
1.0150785 1.0220878 1.0263385 1.0199568 1.0245245 0.99525666 1.0371716 0.99396855
1.0204078 1.0127704 1.0234358 1.0110967 1.0235243 1.023518 0.99607855 1.0378855
1.0134099 1.0251557 1.0266199 1.0207707 1.0189016 0.9954352 0.9916914 1.034982
1.0342495 1.0161746 1.0199608 0.99443 0.99972224 1.0333526 1.0212662 1.0239314
0.99408567 1.0121136 1.0336615 1.0199012 1.0203192 1.0176425 1.0019568 1.0293198
1.0274816 1.0220124 1.0291778 1.0233719 1.0179386 1.0149966 1.023677 1.0203873
1.0250878 1.0103147 1.0244268 1.0081226 1.0067835 1.0353105 1.0187082 0.99057806
1.021582 0.99730736 0.99851114 0.990936 1.0019238 1.025187 1.0221611 1.0107028
1.0202966 1.0268925 1.0150955 0.99020797 1.0158802 1.0274361 1.0168461 0.99936384
1.0040907 1.0019593 1.0054649 1.0365902 1.0192827 1.0126898 1.0245456 1.0393527
1.0042322 1.0244064 1.0248185 1.0202721 1.0214661 1.00353 1.0304389 1.0153868
1.014464 1.0130804 0.99434 0.99923474 1.0177687 1.0100273 1.0021489 1.0198447
1.0174723 1.0154319 1.0155388 1.0147705 1.0248634 1.0239308 1.0167629 1.0184982
1.0167238 1.0032127 1.0242625 1.0187513 0.99052036 0.9940367 1.0257696 1.018803
0.9878736 1.0214114 1.0039164 1.0312107 1.0264899 1.0147905 0.99329895 1.004998
0.99457556 1.0201262 1.0318627 1.0063001 1.019558 1.0206827 0.9900188 1.0154845

blocks.1.bn.module.bias f4 [128]
00000000: 0cfe 4c3c e7b2 e73b 181f b63c 661b b73c
00000010: e087 853c 6e0a 003c 31dd c23c 7e51 7ebc
00000020: 3fd5 b23c b452 10bc 81b4 bb3c 5ca4 6c3c
00000030: 1e22 a53a 27f9 b33c 7a50 e6bb 3f7e 033d
00000040: 1443 b13c 56b1 e53c 890f dd3c acce 063d
00000050: 7cc3 903c 65b1 8ebc 9d29 31bc 55b8 c93c
00000060: 32fc ef3c 9d3d a43c e165 ac3c 3c9b adbb
00000070: 4983 053b 8b5f 9a3c 05a1 063c 670b 073d
00000080: 3811 09bc 5911 04bc 61a5 b8bb 91e6 073d
00000090: f9c1 943c 2e91 943c 6c16 803b 136b ae3c
000000a0: 07c7 cc3c 6d91 1b3c 5b84 cc3c 8c7f a73c
000000b0: b892 6c3a 76bc cb3c c15d b93c 2cca a03c
000000c0: 5d49 403b 793e 773c 1520 ab3c fa56 ab3b
000000d0: d135 c03b b296 c83c 74ea 933c 0059 5dbc
000000e0: c544 8c3c 4b3a dabb 8305 dfba 1168 79bc
000000f0: ac6f 313b 2d2e af3c 0074 973c 4bae ef3c
00000100: 8e28 a23c fe12 c23c f6a9 b63c 3b21 69bc
00000110: fd96 e93b 522e f43b 7dba 893c 11b7 65bc
00000120: 8cc2 093c b3aa 4fbc db94 893b d23f 053d
00000130: ee02 9d3c ab29 79bb 3076 c13c 83cd ed3c
00000140: a7d1 cebb 33a5 b13c f5be bb3c 583a a03c
00000150: 79dc bb3c 404f 02bc 4c9f 82b9 0999 243c
00000160: 8c82 2f3c 7eb7 9bba 15c6 66bc b6f1 10bc
00000170: bb1d ba3c b825 4fbc cfaf 00bb 2718 bb3c
00000180: 19a0 a13c e784 95bb 8ed7 b13c a45e a03c
00000190: d5cf 9c3c 0a4f 5c3c c7d7 5f3a ca47 d53c
000001a0: 3b13 993c 5738 19bc df88 ce3c df6a 073c
000001b0: 3f2c 1cbc 819d 4dbc 4e5b 6d3c d831 b23c
000001c0: 0e76 1db9 52ac 833c 33de 27bc 212a ba3c
000001d0: c529 6c3c e546 7c3c 07a2 63bc 8ca2 3fba
000001e0: 264e 66bc 0f78 673a 10cd b13c 9bf8 b73c
000001f0: 7657 8f3c 033d b83c 6d23 75bc 0abd 8d3c
0.012511741 0.0070708874 0.022231624 0.022351932 0.016300142 0.007814987 0.023787113 -0.015522359
0.0218302 -0.00880878 0.02291322 0.014443483 0.0012598669 0.021969391 -0.0070286365 0.03210282
0.02163843 0.028038662 0.026984947 0.03291194 0.01767134 -0.017418573 -0.010813144 0.02462403
0.02929506 0.02004891 0.021044673 -0.0052980464 0.0020372442 0.018844387 0.008217101 0.03296986
-0.008365922 -0.008060777 -0.005634949 0.03317887 0.0181589 0.018135633 0.003908923 0.021291291
0.024997247 0.009495121 0.024965456 0.020446561 0.00090245483 0.024870139 0.022627713 0.019627653
0.0029340603 0.015090578 0.020889321 0.0052288743 0.0058657904 0.02448592 0.018056132 -0.013509989
0.017122636 -0.006659781 -0.0017015192 -0.015222565 0.0027074618 0.021384323 0.01848793 0.029257914
0.019794729 0.023690697 0.02229784 -0.014229114 0.007128595 0.007451811 0.016812557 -0.014020697
0.0084082 -0.012674975 0.004198653 0.032531567 0.019166436 -0.003801922 0.023615927 0.02902866
-0.0063116136 0.021685218 0.022918204 0.01955907 0.022932278 -0.007953465 -0.00024914218 0.010046252
0.010712277 -0.0011880246 -0.014085312 -0.008846691 0.022719255 -0.01264327 -0.001963604 0.022838665
0.01972966 -0.0045629623 0.02170923 0.019576378 0.01914207 0.013446579 0.0008538928 0.026035208
0.018685928 -0.009351811 0.02521175 0.008265226 -0.0095320335 -0.012549759 0.014487101 0.021752283
-0.00015016666 0.01607338 -0.0102458475 0.022725167 0.0144142555 0.015397762 -0.013893611 -0.0007310293
-0.014056718 0.0008829841 0.021704227 0.022457412 0.01749776 0.02249003 -0.014962059 0.017302055
